session2/lab/AI/trained_model_weights.pth (torch, 774407 bytes, 6 tensors)

fc1.weight f4 [512, 117]
000000 e9 53 30 3c 14 a0 8c 3d 14 86 b9 3d 73 96 84 3d
       0.010762193 0.0686647 0.090587765 0.064740084
000010 0b 02 2c bd da e8 5a bc 9e 5a da bb 6d 91 b0 3d
       -0.041994136 -0.01336118 -0.0066636344 0.08621488
000020 84 e0 84 bd f6 7e aa 3d e7 51 23 3d e9 3e 8a bc
       -0.064881355 0.08324997 0.03987303 -0.016875701
000030 d1 d2 13 bd d9 da 83 bd 3d 7b 30 bd b6 c2 89 bd
       -0.036089722 -0.06438226 -0.04308628 -0.06726591
000040 10 9c 04 3d 05 7f 97 bc 03 e7 ad 3d c1 a2 08 3e
       0.032375395 -0.018493185 0.084913276 0.13343336
000050 9c f5 a0 bc c0 f3 e6 bd f8 8c ad bd 86 4f a9 bb
       -0.019648366 -0.112769604 -0.08474153 -0.0051669506
000060 30 5b a3 3d 7c 4a 1b 3d 3e 0e ce bd 67 5d 32 3d
       0.07976377 0.03791283 -0.1006131 0.043546107
000070 8e d5 87 bd 72 e3 fe 3d 27 57 e2 3d 5f 65 d9 3d
       -0.06632529 0.124457255 0.11051779 0.10615038
000080 f7 70 90 3d ca 39 bf 3d 23 44 a6 3d 48 03 24 bd
       0.07052796 0.09337194 0.08118465 -0.04004219
000090 51 76 d9 3d bd d7 c9 3c a7 a6 dc bb 72 bd d1 3d
       0.1061827 0.024639005 -0.0067337337 0.10241212
0000a0 e9 32 ca 3d e9 07 07 be d0 42 ec bd d2 2e 57 3c
       0.098729916 -0.13186611 -0.11536181 0.013133721
0000b0 6d fd 9a 3d 06 03 04 3d 4e 85 dd 3b 7b 8b f9 3d
       0.075678684 0.032229446 0.006760276 0.12184807
0000c0 68 11 d9 3d b9 70 d5 3d d5 39 e3 bd 1e 84 34 bc
       0.10599023 0.10421891 -0.11095015 -0.011017827
0000d0 d4 70 cc 3d ec 7f 98 bd f0 1d 04 bd a3 4f e6 bc
       0.09982458 -0.07446274 -0.032255113 -0.028114146
0000e0 a1 23 a4 bc 6d 9f bf bc 85 c5 4b bd 25 33 38 bb
       -0.02003652 -0.02339145 -0.049748916 -0.0028106656
0000f0 07 3a 0e be 4d db d8 3c d2 c7 d6 bd 5f b6 9c bd
       -0.13889323 0.026471758 -0.104873314 -0.07651972
000100 70 81 4c 3b 76 8f f4 bc d3 96 f6 bc a2 bf ef 3b
       0.003120508 -0.029853564 -0.030101215 0.0073165456
000110 c5 d9 e1 bd a3 66 b1 3d 5b 62 48 3d e3 c9 8f 3d
       -0.11027864 0.086621545 0.048921924 0.07020929
000120 47 c3 92 bc f6 6a d2 bd c8 0e ef 3c b5 02 eb bc
       -0.017915381 -0.102743074 0.029181853 -0.028687814
000130 79 db e4 bd af 44 b3 bc f9 80 a5 3d ab a6 f3 bc
       -0.111746736 -0.021883337 0.0808124 -0.02974256
000140 88 30 4a 3b e7 0a c7 bd 0b d8 36 bc 4d bd 82 bc
       0.003085168 -0.09718876 -0.011159907 -0.015959406
000150 cc 80 e6 3c 54 3e bb 3d ea 8c ff 3c cb 22 0b be
       0.028137587 0.091427475 0.031195123 -0.13587491
000160 a8 d0 1e 3d fe cd 24 bd 87 a8 06 bd af 25 38 3d
       0.03877321 -0.040235512 -0.032875564 0.044957813
000170 75 b6 64 3d e6 fb 17 bb db 92 e1 3c 27 b1 51 bd
       0.055838067 -0.0023190915 0.027535846 -0.051194336
000180 6e 9f 19 3d 6a 3a 85 3d 83 cf 1c 3d 02 64 c1 3c
       0.03750556 0.06505282 0.038283836 0.023607258
000190 9e 28 6e 3d 67 ec 5f bd c2 f5 58 bc 7d 5e 81 3b
       0.058144204 -0.05466881 -0.013242187 0.0039480315
0001a0 ce 8f 9c bd b1 db cd 3c 1b bb 99 bd cb f7 aa bd
       -0.07644616 0.025129171 -0.07506391 -0.08348044
0001b0 4f fa 50 3d 55 45 71 bd ac 9b 75 bd 35 77 0b bd
       0.051019963 -0.05890401 -0.059962913 -0.03404923
0001c0 6d 6e 0c 3d fe 6d b8 bd 22 b9 f9 bc 98 39 97 bd
       0.034284998 -0.09005354 -0.030483786 -0.07384032
0001d0 d2 2d d3 ba dc 1f e8 3d 31 4b 81 bc e3 a9 0c 3d
       -0.0016111678 0.11334202 -0.015782924 0.034341704
0001e0 c0 6f c1 bb 46 57 90 bd bf 4e eb 3d 89 66 34 3d
       -0.005903214 -0.07047896 0.11489629 0.044043098
0001f0 5f 88 b5 bd 1c e9 d5 3c 91 eb 08 3d 0a 2c 8e bd
       -0.08863901 0.026112132 0.03342778 -0.069419935
000200 2c 7b 05 bd 8f fc e2 3d 1c 1d 41 bd 85 0b be 3c
       -0.03258817 0.11083328 -0.0471469 0.023198852
000210 86 39 13 3b 8e 21 97 3d 26 e2 89 3d 8d 4d 89 3d
       0.0022464707 0.07379447 0.067325875 0.06704245
000220 cd 9b 1c 3c 26 31 06 bd 5e 56 83 3d fd 74 c8 bc
       0.00955863 -0.032761715 0.064129576 -0.024469847
000230 07 a1 bb ba 38 f9 21 3d df 42 50 3c 77 e9 1a 3d
       -0.0014314958 0.039544314 0.012711256 0.037820306
000240 de af 13 3e e6 a3 21 3e 0e 40 53 bd 6e 0f ea 3d
       0.14422557 0.15785179 -0.05157476 0.11428724
000250 e6 6d 84 bd c0 ec b0 3d 14 c9 ac 3d 7b 1d ac 3c
       -0.06466274 0.086389065 0.0843679 0.021010151
000260 6e 49 f0 3d b1 d6 a5 3b 0c 7c 13 3e ee 1c 8a 3c
       0.117327556 0.0050609936 0.14402789 0.016859498
000270 5b 5f 11 3b f3 31 66 3c 52 21 26 3d ac 7d 88 3d
       0.002218208 0.014049995 0.04055912 0.06664595
000280 b0 c8 0e 3b 93 45 37 bd fc 55 06 3e 06 10 d2 3c
       0.00217871 -0.044744086 0.13118738 0.025642406
000290 92 ae fb 3c 95 f1 48 3b da 4c 43 3d 3f cc c5 3d
       0.03072289 0.0030661572 0.047680713 0.096580975
0002a0 c1 54 72 bd 02 75 00 3e ea 72 1e 3e 50 a0 44 bd
       -0.05916286 0.12544635 0.15473524 -0.04800445
0002b0 70 4f 12 3a 88 7e a9 bd 39 16 21 bd c7 a3 9d bd
       0.0005581295 -0.08276087 -0.039327834 -0.07697254
0002c0 1d ef 15 be 22 2b 8f bd 82 61 01 bd 71 8e d1 3c
       -0.14641996 -0.06990649 -0.03158713 0.025580617
0002d0 cb cb a4 3d b7 f5 ae bd e7 6c df bc 63 2a 33 bc
       0.08046683 -0.0854296 -0.027273608 -0.010935399
0002e0 a7 08 aa 3d f7 14 ea bd 6d 0a 9a bd a3 5f ed 3a
       0.083024316 -0.1142978 -0.0752152 0.0018110167
0002f0 a4 c2 1e bd a9 e4 98 3d 51 9c 51 3d 46 10 21 bc
       -0.038759843 0.074654885 0.051174466 -0.00983054
000300 9e 7f a2 3d b6 63 b1 3d 9b cc 35 bd 0f e9 a2 bd
       0.07934497 0.086615965 -0.04438458 -0.07954609
000310 6f 9a df bd b2 f7 21 bd f7 e9 ae 3d 7a 14 6d bd
       -0.10918128 -0.03954286 0.08540719 -0.057880856
000320 52 d2 cd bd ba 06 84 3d 06 f0 09 bd 83 c1 a8 3c
       -0.10049881 0.064465955 -0.03367617 0.020600086
000330 f9 58 c2 bd d1 62 19 be 68 b0 86 bd c6 df 86 bd
       -0.094896264 -0.14979102 -0.065766156 -0.0658565
000340 79 53 ca 3d e1 f1 ae 3d 1c 03 33 3d 07 b0 6e 3d
       0.098792024 0.085422285 0.043704137 0.05827334
000350 00 53 b8 bd c7 d4 56 3c 49 b0 b9 bc 09 10 86 3d
       -0.09000206 0.0131122535 -0.022667067 0.06546027
000360 0c ef 75 3c d9 1a f5 3b a7 64 81 bd 6e 71 2a bd
       0.0150106065 0.007480007 -0.06318026 -0.04161208
000370 76 79 42 3c 09 77 1f bc 45 1e 0f 3b e9 eb 82 3b
       0.011869779 -0.00973297 0.002183811 0.003995408
000380 a3 22 3b 3d 2a fd b7 3c 89 bb 84 bc ac e0 70 3c
       0.04568733 0.022459585 -0.016202705 0.014702003
000390 29 e5 93 bd c4 3a fa 3d 3e 9d d1 bd a7 8d a2 bd
       -0.07221443 0.1221824 -0.1023507 -0.07937174
0003a0 e0 0f 00 be 6b bd 99 bd 08 f6 b7 3d 55 6b 55 3d
       -0.12506056 -0.07506832 0.089824736 0.052104313
0003b0 6c 43 68 bd 31 c9 9a bc 4c b7 99 3d fc 36 ca 3d
       -0.056704924 -0.018894764 0.07505664 0.09873769
0003c0 7b 6f 8c bc b9 5b 3d bd 63 1b 08 bd d4 2d 69 bc
       -0.017143002 -0.04623005 -0.033229243 -0.014232118
0003d0 59 82 8b 3d 1f 7e 7b bd 6a 86 86 3c f8 c1 57 bd
       0.06811971 -0.061399575 0.016421515 -0.052675217
0003e0 be 1b a3 3d 62 47 10 3e d4 4f 8b 3d 4a f5 32 3c
       0.07964276 0.1408973 0.068023354 0.010922739
0003f0 b4 0f 67 bc 0d 93 05 3e 56 b9 83 3b 2e c1 82 3c
       -0.014102865 0.13044377 0.0040198965 0.015961256

fc1.bias f4 [512]
000000 c9 6b 05 3d f0 7d fb 3d 36 ce 32 3c 68 4a 3a bd
       0.032573495 0.1227988 0.010913422 -0.045481116
000010 ff 45 c3 3d 76 78 52 3d 9c 4b 94 3d 72 2d 3e bd
       0.09534835 0.05138441 0.07240984 -0.04643006
000020 46 e1 4d 3c 9d be d4 3b 69 f9 1c bd ef 40 ba 3d
       0.012565916 0.0064924494 -0.038323794 0.09094416
000030 bc d6 d6 3b 4b b0 ea 3d b6 55 ff bc 02 aa 56 bb
       0.00655636 0.114594065 -0.0311688 -0.003275514
000040 69 2c 1c bd 3d c0 16 bd c3 d6 32 3d 56 dd ef 3d
       -0.03812829 -0.036804426 0.043661844 0.11712138
000050 14 fd bc 3d 1b 85 d3 3d a8 de d0 3d 1f 29 7a 3d
       0.09227958 0.10328122 0.10198718 0.061074372
000060 22 2e d0 3d 75 c2 e4 3d 43 c7 2d bd 83 f9 65 bc
       0.10165049 0.11169902 -0.04242636 -0.014036539
000070 99 a8 c6 3d a2 ed c7 3d be 71 e4 3d 78 cd 12 3d
       0.09700126 0.09762122 0.11154507 0.03584048
000080 e2 03 d1 bc d0 f5 00 3e 09 a1 e8 3d a8 0d c3 3b
       -0.025514547 0.1259377 0.1135884 0.0059525557
000090 39 ef 34 bc f7 32 a9 3b d2 69 9c bc 29 09 b4 3d
       -0.011043363 0.005163546 -0.019093428 0.0879081
0000a0 79 d8 a8 3d f9 ae a1 3d 31 ad 3c 3d ab e5 9b 3d
       0.08244414 0.078947015 0.046063606 0.07612165
0000b0 b7 0a 87 bc 7c 99 d6 3b ab 34 8e 3d d1 74 89 3c
       -0.016484601 0.0065490585 0.06943639 0.016779335
0000c0 2e e8 a8 3d d6 ff 82 3d fc d6 9d 3d a9 52 85 3d
       0.0824741 0.06396453 0.07707021 0.06509907
0000d0 b5 ae 0f bd 83 9e d2 3d 55 d1 a8 3d 0c 33 8d 3d
       -0.035078723 0.1028414 0.08243052 0.06894502
0000e0 92 f2 a6 3d 2d d9 76 3d 51 5a b0 3c 2a ef b2 3d
       0.08151735 0.06026571 0.021527441 0.08737023
0000f0 95 d7 06 bc a7 0e bb 3d a6 7b b8 3c 68 7c df bc
       -0.00823011 0.09133654 0.022519898 -0.027281001
000100 67 d7 b9 3d db 60 a0 3d a1 da 11 3d e4 74 be bc
       0.09074288 0.07830974 0.03560889 -0.023249097
000110 31 0c fe 3d 24 42 51 3c 14 94 36 bd aa d6 a8 3b
       0.12404669 0.012772117 -0.044574812 0.005152543
000120 c6 f5 b9 3d 85 c0 9b bc 1a d4 05 bc b3 db bb 3d
       0.09080081 -0.019012699 -0.008168245 0.09172764
000130 cb 5f 00 3e 16 39 97 3d 7e f9 9b bc 59 ab 67 bc
       0.12536542 0.07383935 -0.019039866 -0.014139974
000140 87 e9 a4 bb df c3 16 3c 9e 3b 55 3d f4 02 82 3d
       -0.0050327214 0.009201973 0.05205881 0.063482195
000150 b5 b8 dc 3d 58 26 0e 3b 71 97 aa 3c 92 83 99 3d
       0.107774176 0.0021690335 0.020824166 0.07495798
000160 68 28 92 bc 40 2f 48 3d fa 22 f3 3c ec 6d 12 3d
       -0.017841533 0.048873186 0.029679764 0.03574936
000170 b1 9b 3b bd d0 71 a2 bb f9 ca 3b 3c 44 2d 88 3c
       -0.045802776 -0.004957415 0.011461967 0.016623147
000180 2d 79 25 3d 1a 21 1e 3d 15 e4 46 bd 0d 43 72 bc
       0.040398765 0.038605787 -0.04855736 -0.014786494
000190 43 37 58 3c 4c b7 98 3d e3 df 84 3d fd 1b 1c 3d
       0.013196769 0.07456836 0.064880155 0.03811263
0001a0 c6 89 98 3d 89 8c cd 3d f1 12 a5 3d 8a 21 b0 3d
       0.07448153 0.100365706 0.080602534 0.08600147
0001b0 9d 41 73 bc 92 1b 7a 3d 6a 71 eb 3c 99 13 35 3d
       -0.014847186 0.06106145 0.028740603 0.044208143
0001c0 09 38 54 3d 6a c9 d5 3d f8 c6 26 3c c5 9c 4e 3c
       0.05181125 0.10438807 0.010179274 0.012610619
0001d0 e0 f2 67 3d a8 fe 8b 3d bd ce e4 3d ca 3e cf 3d
       0.056628108 0.06835681 0.11172245 0.10119398
0001e0 86 93 41 bd f4 f0 aa bb b2 65 28 bd fd d4 24 bc
       -0.04725983 -0.005216712 -0.04111261 -0.010060546
0001f0 dc a8 5b bd 44 df ef 3d df dc e7 bc dd 9a 4a bd
       -0.053627834 0.117125064 -0.028303562 -0.049464095
000200 3d 3c 44 3d 76 e7 74 39 7a c4 ac 3b 80 25 2b 3d
       0.04790901 0.00023355879 0.0052724453 0.04178381
000210 9d 21 c3 3d c0 eb a3 3d 9c 6e fb bb 4d 8a 1a bd
       0.095278956 0.0800395 -0.007673098 -0.03772955
000220 98 90 96 3d eb 74 9d 3d c2 80 3c 3d f0 cd 7e bd
       0.07351798 0.07688316 0.04602123 -0.062208116
000230 e0 45 5c 3b 2e ca fe 3c 39 e5 2f 3d c1 5c 8c 3c
       0.0033610985 0.031102266 0.042943213 0.017134072
000240 91 93 90 3c c5 ee b8 3c 60 7e bf 3d 5d 15 cf 3c
       0.01764849 0.022574792 0.09350276 0.025278741
000250 0d fe 83 3d 72 b2 2c 3d 8b 55 4b 3d c0 c4 43 3d
       0.06444941 0.042162366 0.049642127 0.047795057
000260 39 53 0a 3e 34 c9 44 bd 83 b1 b7 3c 39 9d d2 3d
       0.1350831 -0.048043445 0.022423511 0.10283894
000270 bd 17 cb bb 5d 2a 00 3e 90 e2 2e 3d 5f 6d 17 3d
       -0.006197898 0.1251616 0.042696536 0.03696954
000280 ab 18 cb 3d 14 10 27 bc f7 c5 b2 3d 17 6e 75 3d
       0.099168144 -0.010196704 0.08729165 0.059919443
000290 e0 e4 79 3d 06 ff b8 bc 96 e1 1e 3d ce 4d f9 3b
       0.061009288 -0.022582542 0.038789354 0.007608152
0002a0 40 d3 b4 3d e6 63 3b 3d 2a ae ec 3d a7 50 cf 3d
       0.08829355 0.045749567 0.11556657 0.10122805
0002b0 67 43 28 bd 16 36 e5 3d 42 00 83 3d ea fc 1a 3d
       -0.041079905 0.11191957 0.063965335 0.037838854
0002c0 9e 29 52 3d 50 16 d7 ba d0 a6 99 3d 92 7a 1e 3c
       0.05130922 -0.0016409848 0.0750252 0.009672778
0002d0 9d 07 55 bd 3c e0 ee 3b 7f 22 92 3d 48 4e d6 3d
       -0.052009214 0.0072899144 0.07135486 0.1046415
0002e0 a5 31 cc 3d f4 3d 28 3d 2e 89 57 3d 65 fa 55 3d
       0.099704064 0.041074708 0.05262106 0.052240748
0002f0 c0 32 0a 3d c1 5e 70 3d 2a f9 2e 3d 17 bf f9 bc
       0.033739805 0.058684114 0.04271809 -0.030486627
000300 48 5b ed 3c c1 60 66 ba a2 d8 ec 3d 69 22 32 3d
       0.02897419 -0.0008788221 0.11564757 0.043489847
000310 f2 53 aa 3d a1 e2 c1 3d 85 f8 1c bd 18 99 34 3d
       0.083167925 0.09467054 -0.038322944 0.044091314
000320 96 1b f7 bc 06 f9 17 3d 3c 49 2a 3d 60 1e 81 3c
       -0.030164521 0.03710272 0.041573748 0.015761554
000330 19 f5 db 3d e4 cb 60 3d c2 97 90 3d 60 5f 06 bd
       0.10740108 0.054881945 0.070601955 -0.0328058
000340 83 36 16 bd 96 01 a0 3c 24 17 eb 3d 0c be d6 bc
       -0.03667308 0.019532006 0.11479023 -0.026213668
000350 31 d2 19 3c 41 84 c0 3d 6c de e7 3d e4 47 f6 3d
       0.009388492 0.094002254 0.113217205 0.12025431
000360 11 ae 01 3e 70 22 77 3d 8f a4 31 bd 6c fd 27 3d
       0.12664057 0.060335577 -0.043369826 0.041013166
000370 bd 67 91 3b 4f a2 fc 3c 83 15 82 3d 8f 65 7c 3d
       0.0044374154 0.030839114 0.06351759 0.06162029
000380 77 ef b1 3d 5c 5e 92 3d c6 dd fe 3d 31 cf 40 3d
       0.086882524 0.07146904 0.12444644 0.047072593
000390 3c d8 2b bd d8 00 22 3d 10 dc d1 3d 68 b7 c2 3d
       -0.041954264 0.039551586 0.10247052 0.09507638
0003a0 bb cc fb 3d 17 4e 9f bc 3b 32 22 3d 8c f2 e2 3c
       0.122949086 -0.019446416 0.039598685 0.027703546
0003b0 64 bf bc 3d 25 c6 7d 3d 0d 91 4f bd 5a 18 c1 3c
       0.09216192 0.061956543 -0.05067544 0.023571182
0003c0 be 8d 05 3c f6 2b e4 3d ff af d7 ba 70 26 d5 3d
       0.00815147 0.111411974 -0.0016455649 0.10407722
0003d0 c2 17 9d 3d 32 fa ef 3d 6a ec 4a 3d 2f 73 04 bc
       0.07670547 0.11717643 0.04954187 -0.0080841025
0003e0 78 b3 71 3d 6c 24 41 bc 18 6c 58 3b f9 5c 49 3c
       0.059009045 -0.011788469 0.0033023413 0.012290233
0003f0 73 bc d0 3d bd 9a 1a 3c c5 3b 84 bd 59 b4 e3 3d
       0.10192194 0.009436307 -0.06456713 0.11118383

fc2.weight f4 [256, 512]
000000 16 f9 cf 3d 62 4f 80 3d fb ba e1 3c bd 59 9e bd
       0.10154931 0.06265141 0.02755498 -0.0773196
000010 d3 79 b3 3d 12 c8 41 3d 76 a3 25 3d 77 50 5d bd
       0.087634705 0.047309943 0.04043909 -0.054031815
000020 b9 48 e8 bd 6c 66 41 bd 14 28 76 bd 41 08 30 3c
       -0.11341996 -0.047216818 -0.060096815 0.010744155
000030 f3 df 5f bd 4c f2 bd 3d e4 eb 65 3d 49 84 a3 bc
       -0.054656934 0.0927473 0.056133166 -0.01996054
000040 dd 66 ad bd db 99 f7 3d 1f 3d 14 3c 57 7a dd 3c
       -0.08466885 0.120898925 0.0090477755 0.027035875
000050 76 2e b6 39 31 93 08 3d e3 24 ac 3d 54 71 2d bd
       0.0003474836 0.033343498 0.08405473 -0.042344406
000060 22 c5 7e 3d 2a ee 27 3d b8 c7 25 bb 19 55 10 3d
       0.06219972 0.040998615 -0.0025296044 0.035237405
000070 78 de 72 3c 19 43 9c bc d2 28 9c bd fa 9c a9 3d
       0.0148235485 -0.019074963 -0.07624973 0.08281894
000080 cb c5 01 3e 45 16 16 bd b1 80 43 3d dd 39 f4 bc
       0.12673108 -0.03664233 0.04773015 -0.029812748
000090 4d d6 4e 3c 02 17 83 bd 6f 95 4d bd 77 77 b4 3d
       0.0126243355 -0.06400873 -0.05019134 0.088118486
0000a0 18 ce 5e 3c 40 66 ae 3d 4c e8 c2 bb 79 7a 05 3d
       0.013598941 0.085155964 -0.005948102 0.032587502
0000b0 84 bd 52 bd f2 72 95 3c c9 60 0e bd b5 95 ff bc
       -0.051450267 0.018243287 -0.03476027 -0.031199316
0000c0 8a b9 1e 3d ee 75 71 bd f7 a2 10 3d c9 22 be bd
       0.038751163 -0.058950357 0.035311665 -0.092839785
0000d0 e3 f6 e9 3b 86 b3 ab 3a 65 b5 ae 3d ff 6f 40 bc
       0.007140027 0.0013099767 0.08530692 -0.011745452
0000e0 49 5f 7e bb 15 14 e6 bc 00 5d 0b bd 09 67 df 3c
       -0.0038814119 -0.028085748 -0.03402424 0.02727081
0000f0 c5 b8 5b 3d dd 1b c1 3c 11 e5 a4 bc da 65 18 bc
       0.053643007 0.023572857 -0.020128759 -0.009301627
000100 43 60 c7 ba af 0d 50 ba 5e ad 52 bd 4b 05 68 bd
       -0.0015211183 -0.00079366093 -0.051434867 -0.056645673
000110 84 58 2a 3d e7 17 a7 3d 35 76 fe 3d cc c5 e2 bc
       0.04158832 0.08158856 0.1242489 -0.027682208
000120 fe 4f 03 bd d5 b2 66 bd 69 31 dd 3c 6b 23 81 3d
       -0.03205871 -0.05632289 0.0270011 0.063055836
000130 22 be 9f bd da 50 5b 3d aa b6 fc 3d ad 76 8a 3d
       -0.07799937 0.053543903 0.12339528 0.06760917
000140 85 fe 9a bd de 63 82 3d 54 af 4d 3c 2c 2a 9c 3c
       -0.07568077 0.063667044 0.0125540085 0.019063078
000150 66 66 0f 3d 75 f1 25 3d 8a 24 1a bd bc c5 3d 3c
       0.035009764 0.040513474 -0.037632503 0.011582788
000160 ea 94 49 bd 2e d6 be 3d 15 dd 02 3d 49 88 4a bd
       -0.04921428 0.09318195 0.03194912 -0.049446378
000170 29 ba 8d 3d 5b 09 7f bc 4b 68 8d 3d 74 29 4b bc
       0.06920273 -0.015566195 0.06904658 -0.01240002
000180 e3 63 6c 3d 92 3c f8 bb 09 5d 84 bd fc 61 83 bc
       0.057712447 -0.00757558 -0.064630575 -0.016037934
000190 b0 d8 f3 bc c5 33 5a bc db 93 c4 3d 54 51 9a 3c
       -0.02976641 -0.013318007 0.09598514 0.018837608
0001a0 92 68 03 3d 67 00 32 ba 76 41 9e bd 1c b1 90 3d
       0.032082148 -0.0006790221 -0.077273294 0.07065031
0001b0 37 0e b5 bd ee ed a9 3d c2 4b 84 3d 12 a5 be bd
       -0.08840602 0.082973346 0.06459762 -0.093088284
0001c0 e8 dd bc 3d 1f 5c 2a 3d eb 45 c4 3d 2e 70 95 3c
       0.09222013 0.04159176 0.09583648 0.018241968
0001d0 0b 5e 4a bd f4 66 a4 3b d4 6f 7e 3c 2f 97 e9 bc
       -0.049406093 0.005017156 0.015529592 -0.028514473
0001e0 f5 eb 8d bd 42 4b d5 bd 51 ad 6d bc 45 ae cf bb
       -0.06929771 -0.10414745 -0.014506654 -0.006337913
0001f0 81 3f 16 3d fc cd 41 bb 25 f5 9e bd 7c 7d e2 3d
       0.036681656 -0.002957224 -0.07761601 0.110590905
000200 74 9d 4c 3d 46 ab 8f bc e1 c9 74 3d 80 f4 d4 3c
       0.049954847 -0.017537724 0.05976284 0.025995493
000210 f8 e2 ad 3c 1f fe 13 bc 71 71 37 3d aa 85 17 39
       0.021226391 -0.009032755 0.04478592 0.00014450276
000220 80 2e 98 bd 79 b5 49 3d 62 87 b2 3d d9 17 97 3d
       -0.07430744 0.04924533 0.087172285 0.073775955
000230 9f 68 55 3d ab cd da bc 98 8b f4 3a 58 87 93 bc
       0.052101728 -0.026709398 0.0018657325 -0.018008873
000240 b4 89 b0 bb 8d a9 b9 bd 66 4d 95 3d 30 4e b7 3b
       -0.0053875092 -0.09065542 0.07290153 0.0055940375
000250 85 5a 63 3c 96 b0 7d bd 8a 9e 08 3d e8 99 fa ba
       0.013876562 -0.061935984 0.03335432 -0.0019119354
000260 90 8e a7 bc 7f 04 19 3d 04 0e a0 3d db cf ef bc
       -0.020453721 0.037357803 0.07815173 -0.029273918
000270 db 6b b5 3d 0f 0f d2 bc b2 96 4d bb f5 59 bb 3c
       0.088584624 -0.025641946 -0.003137034 0.022870043
000280 63 9b 52 bb 3f 56 11 3c bb f3 44 3d 92 b9 ac bd
       -0.0032136075 0.00887066 0.048084002 -0.08433832
000290 05 d9 a9 3c 0b 38 e3 bc 68 ca bf 38 0e cd 16 3d
       0.020733366 -0.027736684 9.145291e-05 0.03681665
0002a0 a4 c3 59 3d 53 29 12 3b fa 14 cd bc db 90 0f bd
       0.053165093 0.0022302463 -0.025034416 -0.035050254
0002b0 4e 53 46 bc 7b 85 fd 3b e3 db d0 bc 27 84 f7 bd
       -0.012104822 0.0077368594 -0.025495475 -0.12085753
0002c0 d6 21 7c 3b 32 6e a3 bc 1c 6d 6f bc 41 05 85 3d
       0.0038472316 -0.019950006 -0.014613416 0.06495143
0002d0 ba ba 22 bd aa 1c fb bc a6 51 3a 3d 12 f9 9a ba
       -0.039728858 -0.030653317 0.045488022 -0.0011823496
0002e0 63 07 a4 3c ef 77 56 3d 98 55 b0 3c 25 06 76 3d
       0.020023054 0.05236047 0.02152519 0.060064454
0002f0 36 83 e0 3d 81 7c 7a bd 93 63 07 3c 09 46 4a bc
       0.109625265 -0.061153892 0.008263486 -0.012345799
000300 83 9c b8 bb 01 a9 ef bc b6 ba 6c 3d 89 20 cf 3d
       -0.005633892 -0.029255392 0.05779525 0.101136275
000310 11 e8 6f 3d 2f 7c 89 3d 32 57 7f 3d 6b bd aa 3d
       0.058570925 0.06713139 0.062339015 0.0833691
000320 44 bc ac bd 6a 7c d6 3d 63 97 d7 3d da 8b b4 3d
       -0.08434346 0.10472949 0.105269216 0.08815737
000330 16 b1 0d bc bb e7 a7 bd 7e 44 80 3b 0d 25 9a bd
       -0.008648178 -0.08198496 0.003914415 -0.07526598
000340 6d 50 19 3d 75 28 db 3b c7 93 99 3c 8b cc 8f bd
       0.037430216 0.0066881725 0.018747224 -0.07021435
000350 ca b8 f2 3d f4 88 18 3d 70 55 3c 3d 6a 52 8a 3c
       0.11851652 0.037239984 0.045979917 0.016885001
000360 9a d3 67 3d 0b c8 02 3d 53 0f bd bd 4e 2f 0f 3d
       0.056598283 0.031929057 -0.092314385 0.034957223
000370 85 3b d3 3b f7 a9 ae 3d 9e 41 88 3d 72 50 fe bc
       0.0064463043 0.08528512 0.066531405 -0.031044219
000380 01 d6 10 3d e6 43 2a 3c 29 b6 04 bd 80 ba fc bc
       0.03536034 0.010392165 -0.032400284 -0.030850649
000390 bd b1 bc 3d fd c1 78 3d 0d a8 a8 3c 8f 7e 75 3d
       0.092135884 0.060731877 0.020587945 0.05993515
0003a0 fd b7 22 bc 4b 38 8d 3c ec 55 ab 3c 44 4c ba 3c
       -0.009931562 0.017238757 0.020914994 0.022741444
0003b0 85 43 31 bd 07 fd 94 3d b2 65 1b bd 33 26 41 3d
       -0.043277282 0.07274824 -0.03793878 0.04715557
0003c0 97 45 cb 3d 8e 53 7b 3d 82 80 5e bd f7 5e 58 3d
       0.099253826 0.06135898 -0.054321773 0.05282494
0003d0 dd 5e b6 3d 97 8c 80 3d d8 a1 4d 3c 50 58 56 3c
       0.089048125 0.062768154 0.012550794 0.013082579
0003e0 c3 98 93 bd 29 5a 2f 3d 0f 90 9f 3c a7 89 b5 bc
       -0.07206871 0.042810593 0.019477872 -0.022160364
0003f0 61 7e 69 3d a8 b8 7b 3d d5 70 07 3e 93 bb 40 bd
       0.05700529 0.0614554 0.13226636 -0.047053885

fc2.bias f4 [256]
000000 4c 61 78 3c cc 62 89 bc 0c 1d 19 3d 23 0a 18 bd
       0.015159916 -0.016770743 0.037381217 -0.037119042
000010 8c 8b 2a 3d 74 34 8a 3d f1 d5 3c bc a7 40 4d bd
       0.04163699 0.06748286 -0.011525617 -0.050110485
000020 4f c4 a2 bb a0 45 9f 3c 01 ef 9a bb 7d 36 cf 3b
       -0.0049672495 0.01944238 -0.0047281985 0.006323634
000030 28 e4 94 3b 1a 4f 40 bd 2a 14 f7 3c 68 92 91 3d
       0.0045438 -0.046950437 0.030160982 0.07108003
000040 e3 d1 4a 3a dd dd 11 bc ea 3f c4 3b 82 ee b8 bc
       0.0007736964 -0.008902994 0.0059890645 -0.022574667
000050 93 41 d0 bb 24 77 11 3d d7 a9 53 3d c9 7b 74 3c
       -0.0063554733 0.035514012 0.051675644 0.014922091
000060 34 ad 07 3d 70 71 94 3d b9 65 84 bc d1 ed d0 3c
       0.033124164 0.07248199 -0.016161786 0.025504025
000070 0c d1 61 bc c1 33 2b 3c 46 9f b2 3c 71 5f e9 3c
       -0.013782751 0.010449351 0.021804463 0.028487893
000080 21 d7 12 3d 03 1e 10 3d 30 96 7b 3c 61 d7 d3 3c
       0.035849694 0.03518487 0.015355632 0.025859537
000090 95 db 14 3c 39 21 a3 bc a3 98 4e 3d c4 d3 a9 3b
       0.009085556 -0.019913303 0.050438534 0.005182715
0000a0 5d 88 69 3d f8 9f 2b bd 92 ed 1f 3c 50 1d f7 bc
       0.05701481 -0.041900605 0.009761231 -0.030165344
0000b0 2a a3 87 3d 55 c4 55 3b 02 5b af 3b 6d a8 ec 3b
       0.06622918 0.0032618244 0.005351425 0.0072222264
0000c0 6d c8 43 bc e2 8a 5e 3d 90 ec 2e bd ff 9c 7c 3c
       -0.011949641 0.054331668 -0.042706072 0.01541829
0000d0 e6 08 15 bc 48 17 6b bc 75 5a 1d 3d 64 95 b3 3c
       -0.00909636 -0.014348812 0.038416345 0.021921821
0000e0 57 4f ae 3c 43 e4 cf 3c 06 37 37 bd de a5 1c 3c
       0.021278067 0.025377398 -0.04473021 0.00956103
0000f0 f5 e0 dd 3c 9f 00 12 bb e7 3f 1a 3d 84 0d 2d bc
       0.027084807 -0.0022278202 0.0376586 -0.010562304
000100 82 ca 04 bd 82 29 98 bc 06 9f 6f 3d 82 a9 b5 3c
       -0.03241969 -0.01857448 0.058501266 0.022175554
000110 e4 62 36 bd bf 2b e5 3c 82 47 0e 3d 2c 64 46 bd
       -0.044527903 0.027974961 0.034736164 -0.048435375
000120 a0 b4 9a 3d 92 8f 3e bd 40 76 70 3d a9 7a a9 3b
       0.07553983 -0.046523638 0.058706522 0.005172093
000130 fe de 19 3c 22 8a 35 3d 42 f5 ee 3b 25 3d 1a 3d
       0.009391544 0.044321187 0.0072924206 0.03765597
000140 8b 44 77 3d 47 f1 45 bc dd ac a4 3c 4d b1 0d bb
       0.060368102 -0.012081451 0.020101959 -0.0021620572
000150 7b 1c 4f 3d 61 a9 2b 3d ce ec 9d bc 8d 77 08 bd
       0.05056427 0.04190958 -0.019277956 -0.033317138
000160 fb 51 09 bc 0c 81 41 3c 21 ee 46 3d 65 51 0b 3d
       -0.008381362 0.011810552 0.04856694 0.03401317
000170 d8 18 f5 ba 37 76 e2 3b c4 32 2e bc f3 36 14 3b
       -0.0018699421 0.006911065 -0.010632221 0.002261576
000180 dc 49 f0 3c ae 61 8a 3c ab e7 86 3c 74 92 99 3c
       0.029332094 0.01689228 0.01646789 0.018746592
000190 30 bb 35 3c 0d d3 86 bc 2b 96 16 bc 6d 76 3f 3d
       0.011091992 -0.016458059 -0.009191076 0.0467438
0001a0 42 3f 00 3c fc aa 7f 3d 89 4e aa 3b b8 9d 04 3c
       0.007827582 0.062418923 0.0051973504 0.008094244
0001b0 0a 4f 81 bc 8c a9 b6 3c 87 eb 6a bc bc 50 0b 3d
       -0.01578476 0.022297643 -0.014338381 0.03401254
0001c0 85 7e b9 3b d0 81 52 3d ba de 11 3d a5 47 bc bb
       0.0056608343 0.05139333 0.0356128 -0.0057458454
0001d0 10 b0 e1 bb d3 67 b6 ba 55 81 53 3d 7e 78 3f 3c
       -0.0068874434 -0.001391644 0.051637013 0.011686442
0001e0 96 49 90 bc 6c 2f 85 3c 9e ed 69 3d ce 4b a1 bc
       -0.017613214 0.016257964 0.057111375 -0.019689467
0001f0 13 8d 73 3d a2 43 69 3d f0 78 76 3c 6b 70 ca 3c
       0.05946071 0.056949265 0.015043482 0.024711808
000200 d5 7f 20 3b b3 37 42 3c ae ad be 38 62 d1 c8 3c
       0.0024490256 0.0118541 9.0922564e-05 0.024513904
000210 30 58 0e bc 88 9e ec 3c 46 eb 52 3c 25 b8 09 3d
       -0.008688018 0.028884187 0.012873476 0.03362288
000220 74 04 85 3d 10 f1 35 3d ec 2f 19 3d 4c e5 8f 3d
       0.0649499 0.04441935 0.037399217 0.07026157
000230 17 00 3f 3b f8 dc d2 3c 59 90 df 3b dd d5 67 3d
       0.002914434 0.025740132 0.0068226275 0.05660044
000240 6a 6b 53 3d 7b 91 2c 3d af aa ff 3c 76 cb f5 bb
       0.05161611 0.04213093 0.031209318 -0.007501061
000250 35 19 c4 3c d0 76 07 3d 67 69 28 bb af 5c 34 3d
       0.0239378 0.033072293 -0.002569759 0.044033702
000260 e0 32 b1 bc 1b 3f 01 3d 14 fe 3f bc 12 c3 17 bc
       -0.021630704 0.031554323 -0.011718292 -0.009262817
000270 41 d5 b3 3c 18 2d 2c 3d d5 1f 9f 3c c7 a2 6d 3c
       0.021952273 0.042035192 0.019424358 0.014504141
000280 79 09 10 3d 2b 65 84 bc 49 e7 a9 bb 63 de 5e 3d
       0.035165284 -0.016161522 -0.005185042 0.054411303
000290 6f 9d df bc 60 23 12 3d 95 20 55 3d 82 29 87 3d
       -0.02729675 0.035678267 0.052033026 0.06599714
0002a0 d3 a5 27 bc 2f 31 31 3d 5a bd 20 3d c1 10 4b 3c
       -0.010232407 0.043259796 0.03924308 0.012394131
0002b0 30 ba 98 3d aa 3b 0e bd a7 a7 02 3c 40 6b 0c 3d
       0.074573874 -0.03472487 0.007974542 0.03428197
0002c0 58 e2 9b bb b7 11 b3 3b c2 3d 7a 3c 00 0d c6 bb
       -0.004757207 0.0054647583 0.015273513 -0.00604403
0002d0 92 ba 85 3d 64 d8 8a 3c e4 e3 1d 3d c3 1e 85 bc
       0.06529726 0.016948886 0.03854741 -0.01625002
0002e0 d3 f0 b5 3c ae 44 13 3c 46 22 7b 3c 42 34 2d bc
       0.02220956 0.0089885425 0.015327996 -0.010571541
0002f0 a8 8a a3 3c 68 c7 58 3c ff 75 0d 3d c5 59 78 3d
       0.019963577 0.013231136 0.034536358 0.060632486
000300 f3 8b b4 bc ea cb 81 3c 12 5f 4b bc a5 52 84 bc
       -0.02203939 0.015844304 -0.012412803 -0.01615269
000310 ff f9 01 3d fc 48 fc 3c 99 ea 9c 3c 87 49 25 3d
       0.031732555 0.03079652 0.019154834 0.040353324
000320 ce 1b 96 bc 30 2f 5d 3d 5f 1f 93 bc 56 2d 48 3c
       -0.018323805 0.05400008 -0.017959295 0.01221784
000330 09 7d 8a 3b 4e ff e5 3c 66 5c 10 3c 4a cf d1 bb
       0.004226331 0.02807584 0.008811092 -0.0064028846
000340 b1 47 57 3d c5 56 28 3d 53 db 84 3c 84 e1 2f 3d
       0.052558605 0.041098375 0.016217863 0.042939678
000350 80 1d b8 3c 03 99 4a bc 42 9b de 3b 4b 7f 0b 3d
       0.022475004 -0.012365582 0.0067934105 0.034056943
000360 71 04 7b 3d 59 0e 04 3b d5 fd 40 3d 5f 73 4a bd
       0.061283533 0.0020150153 0.047117073 -0.049426433
000370 2b 56 12 bd 06 1b 68 3d 79 34 d9 3c 98 2b 68 3d
       -0.035726707 0.056666397 0.026514279 0.0566822
000380 e2 66 70 3c cd 88 7a 3d fc c5 32 3c 07 32 4c 3d
       0.014672967 0.06116562 0.010911461 0.049852397
000390 a5 e9 1e 3d 38 6e c8 ba f1 a9 14 3c 1c 01 ea bc
       0.03879704 -0.0015291637 0.00907372 -0.028564982
0003a0 45 35 2d bd e6 2e 3d 3d ee 67 57 3d 54 43 13 bd
       -0.04228713 0.046187304 0.05258935 -0.03595288
0003b0 9b ea 1d bd de ae 87 3d 17 10 13 3d 4b 61 75 3d
       -0.038553815 0.0662515 0.035904016 0.05990724
0003c0 5b 8b 45 bb 62 54 54 bc 37 50 3c bd c4 d7 7d 3d
       -0.0030142877 -0.012959572 -0.045974936 0.06197335
0003d0 a1 d4 a6 bb e4 50 21 3d c1 03 09 bd 49 25 54 3d
       -0.0050912653 0.039383784 -0.033450846 0.05179337
0003e0 d3 09 53 3d 9a 94 33 3d af ce 47 3c a0 8f 32 bc
       0.05152304 0.04384289 0.012195273 -0.010898501
0003f0 c3 07 61 3c d1 78 17 3d 56 4b 6e bc e2 47 57 3d
       0.013734761 0.036980454 -0.014544329 0.052558787

fc3.weight f4 [5, 256]
000000 b0 6b fa bb 3e 72 b3 bd 3f 3e 2c 3b 01 29 fc 3c
       -0.007642232 -0.08762024 0.0026282219 0.030781271
000010 be 9f b8 bd 89 16 cf bd 9e 20 00 be 6b 37 5f bd
       -0.090148434 -0.1011172 -0.12512442 -0.05449621
000020 7f 80 8d bd 69 a7 b7 bc dd 85 71 bd 08 7a e0 bd
       -0.06909274 -0.022418695 -0.058965553 -0.109607756
000030 1d aa f2 bd 1f 2b 3f 3d 40 4e 2e bd bc 28 a3 bd
       -0.11848853 0.046671983 -0.042555094 -0.07966754
000040 b1 07 0b bd eb 49 9a bc b1 da db bc 27 98 0c 3d
       -0.033942882 -0.018834075 -0.026837679 0.03432479
000050 8e 2a 70 bd b1 47 1a bd 11 d8 ed 3a 60 2b a5 bd
       -0.058634333 -0.037666027 0.0018146058 -0.08064914
000060 d3 52 54 bd ff b9 a3 bd b9 bb 31 bd 05 dd 2f 3d
       -0.0518368 -0.0799446 -0.043391917 0.04293539
000070 ad f4 92 bc da e4 95 bd fe ca 80 bc 0f 79 23 bd
       -0.017938936 -0.073190406 -0.015721794 -0.039910372
000080 25 55 c0 bc d4 58 a0 bd 46 50 82 3c d8 10 44 bd
       -0.0234781 -0.078294426 0.015907418 -0.047867626
000090 8b c3 81 bd a5 05 23 3d 8f 72 43 bd 5b eb 55 3d
       -0.06336125 0.039800305 -0.047716673 0.052226406
0000a0 3e f1 72 bc 92 9c 77 bd 1a 53 b1 bd 72 56 20 3d
       -0.014828024 -0.06045205 -0.086584285 0.03914494
0000b0 97 bc 8d bd fe 25 bf bd ef 28 02 3d 20 cd c8 3c
       -0.06920736 -0.09333418 0.03177732 0.024511874
0000c0 8d 06 28 bd 40 f3 c7 bd 47 bb 16 3d 2b 11 86 bc
       -0.041021872 -0.09763193 0.036799695 -0.016365608
0000d0 fd 92 73 bd f2 26 d4 bd 4e 2b a9 bd 45 95 8d bd
       -0.05946635 -0.10358991 -0.08260213 -0.069132365
0000e0 ae 88 15 bd 18 81 47 3d 9b 84 2f 3c fb d5 c6 bd
       -0.0365073 0.048707098 0.010712768 -0.09708782
0000f0 f5 a7 b3 bd a5 cd ab 3c e2 bd 7a bd e2 0f 3f bd
       -0.0877227 0.020972082 -0.061216243 -0.046646006
000100 0b 46 63 3b c7 81 a8 3c 42 6f c5 bd ba d4 6c bc
       0.00346792 0.020569695 -0.09640361 -0.014455015
000110 83 6e b0 3b 37 e9 f6 bc d1 39 ae bd f4 c4 bd 3c
       0.005384268 -0.030140502 -0.08507121 0.023165204
000120 95 cf 49 bd 03 b5 09 3d 98 d2 56 bd eb ec 1c bd
       -0.04927023 0.03361989 -0.05244693 -0.03831188
000130 50 54 60 bd ed 89 4b 3a 9a f8 31 3d 57 fe 27 bc
       -0.054767907 0.0007764388 0.043449976 -0.01025351
000140 9f 3e 48 bd 03 5a 9e bc 4c 76 e3 bb bc 1a ea 3c
       -0.048887845 -0.01933003 -0.0069415923 0.028577201
000150 e2 26 92 bd cd c7 19 bd b7 b9 3b 3c 41 09 43 3d
       -0.071363226 -0.03754406 0.011457852 0.047616247
000160 3d 9e b8 bd 6e 51 dc bc c5 fe a1 bd cc a0 60 bd
       -0.090145566 -0.026894297 -0.079099216 -0.054840848
000170 2f 5a 92 bd 15 c5 33 3d 9d 2f d5 bd 50 c8 c0 bc
       -0.071461074 0.043889124 -0.10409472 -0.023533016
000180 ba d4 2b bc be 27 49 bd 90 ae 1f bd 7f 41 1d 3b
       -0.01048773 -0.049110167 -0.038984835 0.0023995338
000190 0e 34 54 bc ce ea 12 3d 4a 35 d8 bc f0 d3 37 bd
       -0.012951864 0.03586846 -0.026392598 -0.044879854
0001a0 5d 67 5f 3d 45 92 e4 bc e7 02 e8 3c ac de 38 3b
       0.054541934 -0.027901778 0.028321696 0.0028208895
0001b0 5b ff 4e 3d c6 f5 c5 bd 88 02 b3 bd 9c 73 d0 bd
       0.050536495 -0.09666018 -0.08740717 -0.10178301
0001c0 4a 7d 5b bd 15 bc 4c bd 61 ec ec 3c a8 1c a2 bd
       -0.05358628 -0.049984057 0.028921308 -0.07915622
0001d0 c8 31 c3 bd 87 9f 42 3d 38 bc 48 bc 5c d7 8e bb
       -0.095309794 0.04751542 -0.012251906 -0.004359169
0001e0 b9 4d b5 bd 45 9c 9e bd 12 c7 06 bd ca f2 60 bd
       -0.08852715 -0.0774465 -0.032904692 -0.05491904
0001f0 9b 1b 96 bd af 49 9b bd 15 27 fa 3c 87 45 26 bd
       -0.07329484 -0.075824134 0.030536214 -0.04059365
000200 19 86 3d 3d d1 05 b0 bd 11 09 b8 bd 6e f9 1f 3d
       0.046270464 -0.085948594 -0.08986104 0.039056234
000210 74 98 17 bc aa f5 a8 bd c0 36 c0 bd 0e 95 80 bd
       -0.009252656 -0.08249982 -0.09385443 -0.0627843
000220 ed c3 27 bd 3d 1a 9b bd 81 f4 2d bd 1f 3b c0 bc
       -0.040958334 -0.07573364 -0.042469505 -0.023465691
000230 a2 26 91 bb d4 63 9b bc 06 26 86 bd c6 b0 80 bd
       -0.004429654 -0.0189685 -0.06550221 -0.06283717
000240 c7 18 b4 bd f8 bb 90 bd 9f b8 49 3d 84 de 2f bd
       -0.087937884 -0.07067102 0.049248334 -0.042936817
000250 b2 75 92 bd ed f3 69 bd 2d 70 27 bb 08 09 a7 bd
       -0.07151355 -0.05711739 -0.002554904 -0.081560194
000260 33 7d 7e bd 3b 5c a7 bc 18 05 0e bd 1a bb 67 bd
       -0.062131118 -0.020429721 -0.034672827 -0.05657492
000270 4c f7 0a bd e6 34 82 3c 96 7b 03 bd 52 79 e0 bc
       -0.033927247 0.015894365 -0.032100283 -0.0274016
000280 2b 84 9b bd f7 5f 92 bc 20 c4 80 bd dd 82 1d bd
       -0.075935684 -0.017868025 -0.06287408 -0.03845488
000290 4b 28 0a 3d 21 b5 89 3c ac 86 83 bd b6 9b 64 bd
       0.033729833 0.016810002 -0.06422171 -0.05581256
0002a0 ba d0 08 ba 97 0d ca bd d3 86 46 bd 37 5f 73 bd
       -0.0005219091 -0.09865873 -0.048468422 -0.059416976
0002b0 3f 74 0c bd 23 05 15 3d 7c 6a 87 bc 64 a0 3a bd
       -0.03429055 0.036381852 -0.016530268 -0.045563117
0002c0 75 78 74 bb 46 cf c2 bd 28 c8 c7 bd 79 c7 0b 3d
       -0.0037303243 -0.095121905 -0.09754974 0.03412578
0002d0 9f fa 92 bd bc 53 43 be f0 63 c0 bd ec c0 60 bd
       -0.071767084 -0.19074911 -0.093940616 -0.054871485
0002e0 2b 8a 99 bd bc 76 33 3c cf af 37 bc 25 bf 3d bd
       -0.074970566 0.010953601 -0.01121135 -0.046324868
0002f0 06 79 ca bd 9a 81 3c bd 57 6f 88 bd 3b 6b a3 bc
       -0.09886365 -0.046022035 -0.066618614 -0.019948592
000300 13 46 c8 bd 97 24 90 bb e2 ff da 3c 8a cc 3b 3d
       -0.097789906 -0.004398893 0.026733343 0.04584936
000310 8d 09 6e bd ac b7 39 3d 0d 9f d8 bd 7c 91 02 bc
       -0.058114577 0.04534118 -0.105772115 -0.0079692565
000320 da a2 07 bd 94 5d c6 bd 13 16 2e 3c d8 71 35 3d
       -0.03311429 -0.09685817 0.01062538 0.044298023
000330 4e ed 8b bd 70 c8 fc bc 6c b2 87 bc d0 0f 81 3c
       -0.06832372 -0.030857295 -0.01656457 0.01575461
000340 a4 e6 ec 3c d6 d4 a4 bd 4f 56 50 bc 8f 4e 4c bc
       0.028918572 -0.08048408 -0.01271589 -0.012469902
000350 14 15 db bb 00 5b 43 bd db 41 ca bd 8b 01 a5 bc
       -0.0066858623 -0.047694206 -0.09875842 -0.020142337
000360 4a 85 50 bd e0 29 9d bd 54 16 95 bd 1d 72 09 bc
       -0.050908364 -0.07674003 -0.072796494 -0.008389023
000370 f9 79 8d bc 2e 6c 33 bd e7 9f be bd 46 65 ce 3c
       -0.017270075 -0.04380434 -0.09307843 0.025194775
000380 ab 53 c3 bd af af 4a bd b9 f6 46 3d bc 4d 1b bd
       -0.09537443 -0.04948395 0.048575137 -0.03791593
000390 64 09 64 bd 94 c1 95 bc 97 f0 18 bd 36 23 41 bd
       -0.055673018 -0.018280782 -0.03733882 -0.04715272
0003a0 23 36 a7 3c 5f 94 21 3d 2a c0 b6 bb 44 8e 4b bd
       0.020411557 0.03944814 -0.005577107 -0.049696222
0003b0 82 92 62 3d 63 01 99 bd 14 95 8a bd 97 c0 ae bd
       0.055315502 -0.074709676 -0.06766716 -0.08532827
0003c0 80 7b b5 bd ca c4 c4 3a dc 79 19 bc 0e 5a 88 bd
       -0.088614464 0.0015012261 -0.009367432 -0.066578016
0003d0 f7 38 9e bd 10 72 cf 3c 52 84 f9 3c 21 78 ed bc
       -0.07725709 0.025322944 0.030458603 -0.028987946
0003e0 d1 c9 cb bd 07 1f 93 3b 74 6e 2b 3d 11 34 ca bd
       -0.09950603 0.0044897827 0.041853383 -0.09873212
0003f0 7a 95 5c bd 4f 26 83 bd ba 06 d7 bb 8b 09 90 bd
       -0.05385349 -0.06403791 -0.006562081 -0.0703307

fc3.bias f4 [5]
000000 d5 01 8a bd 0e a3 7c 3c 49 9f 08 bd 2d 66 52 3d
       -0.06738631 0.015419735 -0.03335503 0.051366974
000010 a0 23 e1 3c
       0.027482808
