session5/lab/save_rl/weights.pt (torch, 20161 bytes, 2 tensors)

linear.weight f4 [4, 1189]
0	0x3ce40235	0.027833084
1	0xbcd2a535	-0.025713542
2	0xbce55110	-0.027992755
3	0x3c99e731	0.018786998
4	0xbccde2ab	-0.025132498
5	0x3c6bc05a	0.014389122
6	0xbc8b345e	-0.016992744
7	0x3ce1e2a2	0.027573887
8	0x3b8a12c4	0.004213663
9	0xbcade753	-0.021228468
10	0x3caed9c0	0.021344066
11	0xbc6ca15c	-0.014442768
12	0x3c53b930	0.01292257
13	0x3c8a797f	0.016903637
14	0xbc4f4c96	-0.012652537
15	0x3c8ef981	0.017452957
16	0xbc60fb8c	-0.013731848
17	0xbc5f053e	-0.01361209
18	0x3bd656c0	0.006541103
19	0x3bfac488	0.007652823
20	0x3a05d7db	0.00051057123
21	0x3cb6a583	0.022295719
22	0xbbfeb6e6	-0.007773268
23	0xbc833c6c	-0.016020022
24	0x3c42c363	0.011887404
25	0x3ad54e4c	0.0016273945
26	0x3a79be63	0.0009526966
27	0xbc05873c	-0.008149918
28	0xbbf0cf4e	-0.0073489314
29	0xbc6bf6b3	-0.014402079
30	0xbc516cb9	-0.012782269
31	0x3c511e77	0.012763611
32	0x3c0775a6	0.008267796
33	0xbb543f05	-0.0032386195
34	0x3c91a1b5	0.017777303
35	0xbbf5e56b	-0.0075041554
36	0xbc9fefbb	-0.019523492
37	0x3c8697cb	0.016429802
38	0x3c0ee4fd	0.008721587
39	0x3ccd01e9	0.025025325
40	0x3b974b27	0.004617113
41	0xbbc53113	-0.006017813
42	0x3cd072f8	0.025445446
43	0x3cdaa79a	0.026691247
44	0xbca399e5	-0.019970844
45	0x3c15c390	0.009140864
46	0x3c833f41	0.016021373
47	0xbc80736c	-0.015680037
48	0xbbac1c8a	-0.0052524256
49	0x3c81d57a	0.015848864
50	0x3c5a0c4e	0.013308598
51	0x3cbaf98d	0.022824073
52	0x3c4b17db	0.012395824
53	0x3cb64226	0.022248339
54	0x3b1da392	0.0024053794
55	0x3c07281e	0.008249311
56	0xbbaccc99	-0.0052734134
57	0xba2f553c	-0.0006688421
58	0xbcaf6c99	-0.021414088
59	0x3cda5d7f	0.02665591
60	0x3bb3555e	0.005472823
61	0x3aa28a33	0.0012400806
62	0xbb5b6b67	-0.0033480765
63	0xbca8dc5f	-0.020612894
64	0xbc628e06	-0.013827806
65	0x3c7f8d5f	0.01559767
66	0xbbcdaf81	-0.006277025
67	0x3c8b4d65	0.017004678
68	0x3be77367	0.0070633176
69	0xbc698360	-0.014252514
70	0x3b34937a	0.0027553723
71	0x3ba493a4	0.005022483
72	0xbaf49de2	-0.0018662775
73	0xbc91cbed	-0.017797435
74	0x3cdd09b8	0.026982173
75	0xbc989e95	-0.018630305
76	0x3c912457	0.017717524
77	0x3bd79450	0.0065789595
78	0xbc949ccd	-0.018141175
79	0xbc9cc001	-0.019134523
80	0x3c900c42	0.01758397
81	0xbb9e3597	-0.0048281658
82	0xbc07f4ae	-0.008298082
83	0x3ce509d9	0.027958797
84	0x3c12bd32	0.0089562405
85	0x3b4e5d17	0.0031488591
86	0x3b738a6f	0.003716137
87	0x3cd11e79	0.025527226
88	0x3c59273c	0.013253983
89	0x3cdd20a9	0.026993113
90	0xbca5e454	-0.020250477
91	0x3ca8d1a2	0.020607773
92	0xbac599da	-0.0015075759
93	0x3af0a37c	0.0018359269
94	0x3c816514	0.015795268
95	0xbcaaf9cd	-0.020871067
96	0x3cc90a73	0.024541115
97	0xbcc9eb02	-0.024648193
98	0x3c126970	0.008936271
99	0x3baa2f68	0.0051936395
100	0x3cf7d78f	0.030254154
101	0x3c72caa2	0.014818819
102	0x3bbbe8e5	0.0057345503
103	0x3cfc86df	0.03082603
104	0x3cb1eadf	0.02171844
105	0x3b5d55c6	0.0033773049
106	0xbcdb8faf	-0.026801912
107	0xbcaae134	-0.020859338
108	0xbb983d0a	-0.0046459483
109	0x3a8b3911	0.0010621866
110	0xbcfd9085	-0.030952701
111	0xbc9dbf43	-0.01925624
112	0xbc608209	-0.013702878
113	0x39e9a6e1	0.00044565558
114	0xbcc8e0d1	-0.024521263
115	0x3d1a7a84	0.037714496
116	0x3bb9097a	0.0056468816
117	0x3c69c125	0.014267241
118	0xbc8dcb51	-0.017308863
119	0x3c1dc13e	0.009628592
120	0xbc92589e	-0.017864522
121	0x3c842d62	0.016134921
122	0x3c74fe6c	0.014953237
123	0x3c5b1eae	0.013374014
124	0xbc80c05e	-0.015716728
125	0x3c8b45bf	0.017001031
126	0xbca8cf7c	-0.020606749
127	0xbca682c5	-0.020326028
128	0xbb8a3791	-0.00421805
129	0x3c103625	0.008801972
130	0x3c8c9a21	0.017163338
131	0xbb919cce	-0.0044437414
132	0x3be89e73	0.0070989667
133	0x3bb11cb3	0.0054050325
134	0xbc7df913	-0.015501278
135	0x3ca3f642	0.020014886
136	0x3c52cd52	0.012866335
137	0x3a985b95	0.0011623973
138	0x3d004776	0.03131815
139	0xbb8d3586	-0.004309359
140	0x3c633b7b	0.013869162
141	0xbbd2f5f9	-0.0064380136
142	0x3bf5252a	0.007481237
143	0xbc83fe30	-0.016112417
144	0x3cb561b4	0.022141315
145	0x3ca17dd7	0.019713325
146	0x3cae81d4	0.021302141
147	0xbc76a939	-0.015054994
148	0x3cd973cb	0.026544472
149	0xbc97904f	-0.018501429
150	0x3cbf0232	0.023316476
151	0xbc3be410	-0.011467949
152	0xbc8bb4fd	-0.017054075
153	0xbc8d0bad	-0.017217482
154	0xbd0f867e	-0.03504037
155	0x3abb5b23	0.0014294129
156	0xbc96ff15	-0.01843218
157	0xbc35d3c1	-0.011097849
158	0x3ca2387f	0.01980233
159	0x3b06edcb	0.0020588513
160	0xbc984443	-0.018587237
161	0xbc555f3d	-0.013023195
162	0x3b948546	0.004532489
163	0xbc6ae840	-0.014337599
164	0xbc61c680	-0.013780236
165	0xbc7d4abd	-0.0154597135
166	0xbc89fbd4	-0.016843714
167	0x3c9483a8	0.018129185
168	0x3c285cd8	0.010276042
169	0x3c10eb94	0.008845229
170	0x3baaf942	0.005217702
171	0x3d107873	0.03527112
172	0xbbb7fe45	-0.005615028
173	0xbb88d0fc	-0.0041753035
174	0x3c42ffe8	0.011901833
175	0x3c18af67	0.009319163
176	0x3ce9cd46	0.028540265
177	0x3a86a5f4	0.0010272847
178	0xbb003b0c	-0.0019566445
179	0x3c3668e2	0.011133404
180	0xbc4de54f	-0.012566878
181	0xbcbd8f0e	-0.023139503
182	0x3ab839af	0.0014055277
183	0xbcc04331	-0.02346954
184	0x3c30875a	0.010774458
185	0xbcc94b38	-0.024572
186	0xbbab850a	-0.0052343654
187	0x3c1547c6	0.00911135
188	0xbd23576b	-0.03987829
189	0xbbea326c	-0.007147124
190	0xbce77d59	-0.028258013
191	0xbc895d26	-0.01676805
192	0x3c96487b	0.018345108
193	0x3c97650f	0.018480806
194	0x3bf39e88	0.00743467
195	0xbcd10210	-0.025513679
196	0x3c7558cd	0.014974785
197	0xbbb51bf5	-0.0055270144
198	0xbcd7b4c3	-0.026331311
199	0x3cb6974e	0.022288945
200	0xbcb7e862	-0.022449676
201	0xbc44aa7c	-0.012003537
202	0xbc89cc92	-0.01682118
203	0xbc22e183	-0.0099414615
204	0xbcb54f45	-0.022132525
205	0x3d04bf02	0.03240872
206	0xbc8e5841	-0.017376067
207	0x3c0f78f3	0.008756864
208	0xbcaa4274	-0.02078364
209	0x3cbab3ab	0.02279075
210	0xbcda36af	-0.026637403
211	0x3c93b8bd	0.018032426
212	0x3d012123	0.031525742
213	0xbc93fa0a	-0.018063564
214	0x3b1d86f7	0.0024036744
215	0x3bcf254e	0.0063215857
216	0x398ec38d	0.00027230047
217	0x3ca57fca	0.020202536
218	0xbcb70597	-0.022341533
219	0xb94db8b7	-0.00019619135
220	0x3cfc0e92	0.030768666
221	0x3ccc8b5a	0.024968792
222	0x3bc5b2d4	0.006033281
223	0x3c781e62	0.015143963
224	0x3ba713ae	0.0050987815
225	0x3cd8f4e5	0.026483962
226	0x3c8b3d36	0.016996961
227	0xbcf3a3e8	-0.029741243
228	0x3bb95c57	0.0056567597
229	0x3c73e2f3	0.014885652
230	0xbb81db92	-0.0039629424
231	0x3cedbe2d	0.029021347
232	0x3c8aa7bc	0.016925685
233	0x3c73df73	0.014884817
234	0xbc663fd8	-0.0140533075
235	0x3cdb8e61	0.02680129
236	0xbcdeffca	-0.02722158
237	0xbcfe3ad1	-0.031033905
238	0x3cd480ec	0.025940381
239	0x3c20844c	0.009797167
240	0xbc5d7e68	-0.013518907
241	0xbcddef51	-0.027091654
242	0xbcfe81ca	-0.031067748
243	0x3cb2e3e8	0.02183719
244	0xbca48e2e	-0.020087328
245	0xbcb4dc4e	-0.022077706
246	0xbceaf002	-0.028678898
247	0xbc569773	-0.013097632
248	0xbbd07e19	-0.0063626883
249	0x3c9ae090	0.018905908
250	0xbc867fd8	-0.016418383
251	0xbcb11aa2	-0.021619145
252	0x3d02106e	0.03175395
253	0x3be81df4	0.007083649
254	0x3cb5ec9f	0.022207556
255	0xb5517729	-7.803197e-07

linear.bias f4 [4]
0	0xbc99400b	-0.018707296
1	0x3c1360cb	0.008995245
2	0xbc0ce6bd	-0.008599934
3	0xbd852d35	-0.06502763
